model_weights.pt (torch, 784629 bytes, 16 tensors)

encoder.0.weight f4 [12, 3, 4, 4]
0	0xbe1b2f05	-0.15154655
1	0x3e0a6fac	0.13519162
2	0xbdb12ae1	-0.086507566
3	0xbcb8cf14	-0.02255968
4	0x3e1c4971	0.1526239
5	0x3de75e90	0.11297333
6	0x3c9fcf62	0.019508068
7	0x3d392e43	0.045210134
8	0x3dd48d70	0.103785396
9	0x3d616f18	0.055037588
10	0x3c4e6339	0.012596899
11	0xbb429b58	-0.0029694643
12	0xbdd35809	-0.10319526
13	0x3d6fe7ef	0.0585708
14	0xbd6e4ac6	-0.05817678
15	0xbca922a6	-0.020646404
16	0x3e38c71c	0.18044704
17	0x3cf94768	0.030429557
18	0x3d6e60c4	0.05819775
19	0x3cf85178	0.030312285
20	0x3e6e0714	0.23244888
21	0x3e4ed06c	0.20196694
22	0x3db8fce4	0.0903261
23	0xbd245b81	-0.040126327
24	0x3e2cf2d6	0.1688951
25	0x3e3865b4	0.18007547
26	0x3dbfd4f0	0.093667865
27	0x3d8770d3	0.066133164
28	0x3db200d5	0.08691565
29	0x3e06b2b6	0.1315411
30	0xbd02655e	-0.031834953
31	0x3a697358	0.0008905432
32	0xbd9fc21d	-0.07800696
33	0x3d558fd5	0.052139122
34	0xbdc84537	-0.09778827
35	0xbd4b0951	-0.04956943
36	0x3e112222	0.14173177
37	0x3cfae94f	0.030628828
38	0x3d916140	0.07098627
39	0x3d1ecc46	0.03876903
40	0x3cb0b478	0.02157043
41	0x3e294c1d	0.16532941
42	0x3d9ca616	0.07648866
43	0xbe0a28d8	-0.13492143
44	0xbcd919cf	-0.026501564
45	0xbcfbead5	-0.030751625
46	0xbd9623b8	-0.073310316
47	0x3cdb8d9e	0.026800927
48	0x3d993de8	0.07482511
49	0xbd9eaa16	-0.07747285
50	0xbcc2f6a5	-0.02379925
51	0x3d44ca6c	0.048044607
52	0xbdeb92ef	-0.11502635
53	0xbe921ee0	-0.2853918
54	0xbe306273	-0.17225055
55	0xbd49ee23	-0.04929937
56	0xbc0a3abd	-0.008436856
57	0xbe6cb312	-0.23115185
58	0xbd6d7ba2	-0.057979234
59	0x3c5af693	0.013364452
60	0x3d9187eb	0.071060024
61	0xbd196f41	-0.037459616
62	0x3c982d23	0.01857621
63	0x3d37897b	0.044808846
64	0xbbc327df	-0.0059556807
65	0xbdf0dc80	-0.11760807
66	0xbcd1d458	-0.025613949
67	0x3b836097	0.004009317
68	0xbdb0959e	-0.08622287
69	0xbeb1e565	-0.34745327
70	0xbe73e748	-0.23818696
71	0xbcc20a10	-0.023686439
72	0xbd7c113d	-0.061539877
73	0xbe00086d	-0.12503214
74	0xbe3d3f1b	-0.18481104
75	0x3d1122d3	0.0354336
76	0x3a66671f	0.000878917
77	0xbc68c77e	-0.014207719
78	0xbc479b9f	-0.012183099
79	0x3bab4e24	0.005227821
80	0xbb8cd178	-0.0042974316
81	0xbda9cf96	-0.08291547
82	0xbdb3985c	-0.087692946
83	0x3d6a1a5d	0.05715405
84	0xbdb3335d	-0.08750031
85	0xbe939812	-0.28826958
86	0xbe387d31	-0.18016507
87	0xbd9f0e83	-0.0776644
88	0xbd1778b2	-0.03698034
89	0xbe137192	-0.14398792
90	0xbe147b59	-0.14500178
91	0xbd23cee4	-0.03999223
92	0x3d210440	0.039310694
93	0xbdb1e931	-0.08687056
94	0xbc6a877d	-0.0143145295
95	0x3daa14f6	0.08304779
96	0xbccd0a96	-0.025029462
97	0xbdd9de84	-0.106381446
98	0xbd855478	-0.06510252
99	0xbbe0b3e6	-0.006857383
100	0xbcab3101	-0.02089739
101	0xbdcbecf4	-0.099573046
102	0xbe37d804	-0.17953497
103	0xbd541365	-0.05177631
104	0xbd11f702	-0.035635956
105	0x3c563816	0.013074895
106	0xbdf856f1	-0.12125958
107	0xbc7f5b5d	-0.015585748
108	0x3cd2aec3	0.025718099
109	0xbd5a6ade	-0.053324573
110	0xbd15ecd4	-0.03660281
111	0x3cc07535	0.023493389
112	0x3d4c2f2c	0.049849674
113	0xbd12539f	-0.03572428
114	0xbd035fbd	-0.032073725
115	0xbbcf40e1	-0.006324873
116	0xbc9c0bac	-0.019048534
117	0xbc93533a	-0.017984021
118	0xbd1a31ec	-0.037645265
119	0xbce01947	-0.027355803
120	0x3cba3319	0.022729443
121	0x3c74cee5	0.014941906
122	0x3c70c659	0.014695727
123	0x3c9a6113	0.018845117
124	0x3cc2939f	0.023752032
125	0xbce99dfc	-0.028517716
126	0xbc7c3612	-0.015393751
127	0x3d5fc0df	0.054627296
128	0x3d274a3c	0.04084228
129	0x3d7f55c5	0.062337656
130	0xbd5be7ff	-0.053688046
131	0x3b24aaef	0.0025126298
132	0x3d7d151a	0.061787702
133	0xbd41db12	-0.047328062
134	0x3b998158	0.0046846084
135	0x3d5423eb	0.051792067
136	0x3d5bb73f	0.053641554
137	0x3c923c42	0.017850999
138	0x3d59d6e4	0.05318345
139	0x3c936436	0.01799212
140	0xbd47f2b7	-0.048815455
141	0x3dcd65cb	0.10029181
142	0x3cd56d17	0.026052995
143	0xbd864053	-0.065552376
144	0x3973af6d	0.00023239637
145	0xbcb967e7	-0.022632552
146	0x3cb3326b	0.021874627
147	0xbbee4f95	-0.0072726705
148	0x3cab3319	0.020898389
149	0x3dd25297	0.10269659
150	0x3c9b58b8	0.018963203
151	0x3b9c6307	0.004772547
152	0xbc9424d1	-0.018083962
153	0x3dbdd9d2	0.092700616
154	0xbcf57778	-0.029964194
155	0x3c32dceb	0.010916929
156	0xbb8fdbb0	-0.0043902025
157	0xbca2b3ea	-0.01986118
158	0x3c9a4b2b	0.018834671
159	0xbcf73920	-0.030178607
160	0x3c7c51c9	0.0154003585
161	0x3d7e04a7	0.062016156
162	0xbd18863c	-0.03723739
163	0x3cc8e036	0.024520975
164	0x3cdaa7c2	0.026691321
165	0x3d750c22	0.059826024
166	0x3de0f2e0	0.10983825
167	0xbc335b33	-0.010947037
168	0x3ce69ad4	0.02815
169	0x3d2592ce	0.040423207
170	0x3dd769ae	0.10518204
171	0xbd33dea4	-0.0439135
172	0xbb4e32ec	-0.0031463457
173	0x3c05db66	0.008169984
174	0xbd1c8443	-0.038212072
175	0x3d07690e	0.033059172
176	0xbc4d6fd0	-0.012538865
177	0x3d531093	0.05152948
178	0x3ce42703	0.027850633
179	0xbce585ef	-0.028017966
180	0x3d61c70b	0.055121463
181	0x3df9da28	0.12199813
182	0x3d819cac	0.06328711
183	0x3d4a5344	0.049395815
184	0x3d277707	0.040884998
185	0x3d7c46ae	0.061590843
186	0x3deefbf6	0.116691515
187	0x3d52e9cc	0.051492497
188	0xbcbd7d5f	-0.02313107
189	0x3d4b10ab	0.049576443
190	0x3ce7b5ed	0.028284991
191	0xbda6d9be	-0.08147
192	0xbd6d5759	-0.05794463
193	0x3d82d397	0.06388014
194	0x3d6d8cd7	0.057995643
195	0x3c0efbff	0.008727073
196	0x3dbdf198	0.09274596
197	0x3bacf236	0.005277897
198	0xbe08c57e	-0.13356587
199	0x3dce4408	0.1007157
200	0xbcd5e515	-0.026110211
201	0xbd02c0e6	-0.031922244
202	0xbdc73d37	-0.09728473
203	0xbd8dbf98	-0.06921309
204	0x3d1bc81b	0.038032632
205	0x3d4dd12e	0.050248317
206	0xbd562e7f	-0.052290436
207	0x3db461ec	0.088077396
208	0xbd00b2f9	-0.03142068
209	0x3dcf1b83	0.10112669
210	0xbd503b25	-0.050837655
211	0x3d4c1204	0.04982187
212	0x3dafd4b1	0.085854895
213	0xbd7eb6c9	-0.062186036
214	0xbcda9f1d	-0.0266872
215	0x3b849e1e	0.0040471694
216	0x3c82eaa8	0.015981033
217	0xbdef3068	-0.11679155
218	0xbd9a5314	-0.07535377
219	0xbd1f22f3	-0.03885169
220	0x3d02ee0b	0.031965297
221	0x3cd1b2ad	0.025597895
222	0xbd268058	-0.040649742
223	0x3d69c5bf	0.05707335
224	0x3da87d13	0.08226981
225	0xbdc954e7	-0.09830647
226	0xbd5c4468	-0.053776175
227	0x3b616d29	0.003439734
228	0xbdbef6c2	-0.09324409
229	0xbdb8e6af	-0.090283744
230	0xbda84b0e	-0.082174405
231	0xbe0892cd	-0.1333725
232	0xbd84678d	-0.06465063
233	0xbd89dc5b	-0.067314826
234	0xbdf13563	-0.11777761
235	0xbe168ea0	-0.14702845
236	0x3befb1fd	0.007314919
237	0xbdf8b851	-0.121445306
238	0xbe173b82	-0.14768794
239	0xbdd9fd9c	-0.10644075
240	0x3df0d0bb	0.11758562
241	0x3e901cad	0.28146878
242	0x3eae8e5a	0.3409298
243	0x3d983a8a	0.074330404
244	0x3dae2985	0.08504013
245	0x3e35b5e3	0.17745166
246	0x3e7c1b16	0.24619707
247	0x3e19d9a1	0.15024425
248	0x3ceb87fd	0.028751368
249	0x3de3298c	0.11091909
250	0x3e427415	0.18989594
251	0x3dc00153	0.093752526
252	0xbd31c0f0	-0.04339689
253	0x3d97ba23	0.0740855
254	0x3e0b937e	0.13630483
255	0xbd6094cc	-0.054829404

encoder.0.bias f4 [12]
0	0xbfc18243	-1.5117878
1	0x3e436a8d	0.19083615
2	0x3efec1f2	0.49757344
3	0xbd830ee1	-0.06399322
4	0x3e7cdb4a	0.24693027
5	0xbfbb2345	-1.4620138
6	0xbdc8f465	-0.098122396
7	0x3e20d108	0.15704739
8	0xbfc7808e	-1.5586107
9	0x3e9c0655	0.3047358
10	0x3db4704a	0.0881048
11	0xbcab60f1	-0.020920249

encoder.2.weight f4 [24, 12, 4, 4]
0	0x3bbda164	0.0057870615
1	0x3d7216f0	0.059103906
2	0xbdcaf69d	-0.09910319
3	0xbc990c05	-0.01868249
4	0x3c95d482	0.018289808
5	0x3e18fc0c	0.14939898
6	0x3eed523f	0.4635181
7	0x3e0cd5bf	0.13753413
8	0x3ab4f054	0.0013804534
9	0xbb833f6f	-0.0040053646
10	0x3fc33e89	1.5253459
11	0x3ea1bd24	0.31589615
12	0x3c8223d1	0.01588622
13	0x3ea4ac73	0.32162818
14	0x3dec937b	0.11551567
15	0x3e0528c1	0.13003828
16	0x3ca9bec5	0.020720849
17	0xbdb57fdf	-0.0886228
18	0x3d6aaac4	0.05729176
19	0xbd993943	-0.07481625
20	0x3d42ef41	0.04759145
21	0x3cd0b460	0.025476635
22	0x3bdf2246	0.0068095056
23	0x3d27ac0b	0.040935557
24	0xbc9fadd7	-0.019492073
25	0xbe931ec8	-0.28734422
26	0xbebb8c87	-0.3663065
27	0x3c5c2cad	0.013438386
28	0x3d8da1c3	0.06915619
29	0x3dd8e61f	0.10590767
30	0x3eb89d01	0.36057284
31	0x3d61de8e	0.055143885
32	0xbd419599	-0.047261808
33	0xbbbde8d0	-0.0057955757
34	0x3d0baf76	0.03410288
35	0xbd5b21b4	-0.05349894
36	0xba0c092b	-0.00053419423
37	0x3e4962ce	0.19666597
38	0x3d32f250	0.04368812
39	0x3d656107	0.056000736
40	0x3d8cd82c	0.06877169
41	0x3ebf0990	0.37311983
42	0x3e8bf65e	0.273364
43	0x3d96b7a2	0.07359244
44	0xbd1095e2	-0.03529919
45	0x3e6e44ae	0.23268387
46	0x3e13dc17	0.14439426
47	0xbc98a53c	-0.018633477
48	0xbd28fbe4	-0.041255847
49	0x3c266d52	0.0101579
50	0xbc227a11	-0.009916798
51	0x3caeabbe	0.021322127
52	0xbcec955c	-0.028879814
53	0x3d77ead1	0.060526673
54	0x3dfed299	0.12442512
55	0xbc8a8bde	-0.016912397
56	0x3e07b43f	0.13252352
57	0xbf157a07	-0.58389324
58	0xbec6a5f8	-0.387985
59	0x3cd8ae75	0.026450375
60	0xbd4c850e	-0.04993158
61	0x3cec7ddc	0.028868608
62	0xbd7f7bf2	-0.062374063
63	0xbda76313	-0.08173194
64	0x3d312038	0.043243617
65	0xbd43c153	-0.04779179
66	0xbd86e136	-0.06585924
67	0x3df80725	0.12110738
68	0xbe050af6	-0.12992463
69	0x3d2dca3d	0.042429198
70	0xbe331e3d	-0.17492004
71	0xbd60bd97	-0.054868307
72	0x3d28b852	0.041191407
73	0x3d8d096f	0.06886565
74	0x3dbd6dd8	0.09249467
75	0xbd7067e2	-0.05869282
76	0xbd299c34	-0.041408733
77	0xbb960caf	-0.0045791487
78	0xbe147c09	-0.1450044
79	0x3d83f85b	0.064438544
80	0x3cd5070c	0.026004337
81	0x3dbf29a4	0.09334114
82	0xbc7b67f0	-0.015344605
83	0x3d0e8b9a	0.034801103
84	0xbc9ad3d5	-0.018899838
85	0xbd4c6aef	-0.049906667
86	0x3e3ec5cf	0.18630145
87	0xbd9db7f1	-0.077011
88	0xbd27f0fa	-0.041001298
89	0xbf60785a	-0.8768364
90	0x3f0c28ce	0.54749763
91	0x3de479db	0.111560546
92	0x3e68c7f6	0.22732529
93	0xbfb23f59	-1.3925582
94	0x3edfed3a	0.43735677
95	0x3d747bb9	0.059688304
96	0xbb0c0566	-0.0021365522
97	0x3cc63acc	0.024197958
98	0x3dc75329	0.097326584
99	0xbd22ccb3	-0.039745998
100	0xbdb739fc	-0.089466065
101	0x3ea6ec41	0.32602122
102	0x3d5e1bb4	0.05422564
103	0xbd97ef42	-0.07418682
104	0xbcdecada	-0.027196337
105	0x3e80d806	0.25164813
106	0x3e4928b8	0.19644439
107	0x3cda7721	0.026668133
108	0x3c2f5ad0	0.010702804
109	0xbc90f7cd	-0.017696286
110	0xbbe13efb	-0.006873963
111	0xbded14dc	-0.11576244
112	0x3da8fd6b	0.08251461
113	0x3c707c4b	0.014678071
114	0xbbecbd40	-0.007224709
115	0x3c8c23c5	0.0171069
116	0x3cd0d860	0.0254938
117	0x3d98613a	0.074404195
118	0xbbf80774	-0.007569248
119	0xbabc7334	-0.0014377595
120	0xbd9be61f	-0.076122515
121	0x3daac637	0.08338588
122	0xbe75d824	-0.24008232
123	0xbdee5c15	-0.11638657
124	0x3d1eb609	0.03874782
125	0xbcc33115	-0.023827115
126	0xbe80a300	-0.2512436
127	0x3d08216f	0.03323501
128	0xbd4f6c67	-0.05064049
129	0xbd965ed5	-0.073423065
130	0x3bb074ef	0.0053850333
131	0xbc91afa3	-0.017783945
132	0xbc5fc313	-0.013657349
133	0x3e876a36	0.2644822
134	0x3f0d1fa6	0.55126417
135	0xbd0af977	-0.033929314
136	0x3d115be9	0.035488043
137	0xbe4da65b	-0.20082991
138	0xbe840e99	-0.25792387
139	0x3cfecda2	0.031103913
140	0xbdecd66d	-0.11564336
141	0xbd344bc2	-0.04401756
142	0x3dba8151	0.091066964
143	0xbd6b0855	-0.057380993
144	0x3cff6ec7	0.031180752
145	0x3d21a7b6	0.039466582
146	0xbd705dab	-0.05868308
147	0x3cebedea	0.02879997
148	0xbd70ef9e	-0.058822267
149	0x3daceff3	0.08444204
150	0xbe2cd646	-0.16878614
151	0xbdb87943	-0.09007504
152	0xbc7ae9b8	-0.015314512
153	0x3e80cab3	0.25154647
154	0xbe05245c	-0.13002151
155	0xbcccc8d5	-0.024998108
156	0xbdaf4d0b	-0.08559617
157	0xbd2f8615	-0.04285248
158	0xbe886c59	-0.26645163
159	0xbcaa3380	-0.02077651
160	0x3c7f7847	0.015592641
161	0xb969e053	-0.00022304179
162	0x3b057717	0.0020365173
163	0x3dffab05	0.12483791
164	0x3c08f983	0.0083602695
165	0xbe13f192	-0.1444762
166	0xbcd79c8c	-0.026319765
167	0xbcc359dd	-0.023846561
168	0xbdda403b	-0.10656782
169	0xbf17d12c	-0.59303546
170	0xbdf8189c	-0.12114069
171	0xbe4ac2bc	-0.19800848
172	0x3c29cb23	0.010363373
173	0xbde92f23	-0.11385944
174	0x3df92433	0.121651076
175	0xbd859bb4	-0.06523839
176	0x3c069d96	0.008216282
177	0xbba7c5c2	-0.00512001
178	0x3abc7eaa	0.001438101
179	0x3c420d61	0.01184401
180	0xbc1bd725	-0.009511744
181	0x3d06d595	0.03291853
182	0x3d4e0f15	0.050307352
183	0xbd23ae73	-0.03996129
184	0xbc12b90a	-0.00895525
185	0x3cad7a04	0.021176346
186	0x3dd9ac29	0.1062854
187	0x3c249ad4	0.0100466795
188	0x3bb1939c	0.0054192077
189	0x3cad1f4b	0.021133086
190	0xbc4004f8	-0.011719935
191	0xbb4138c4	-0.0029483298
192	0xbc824e23	-0.0159064
193	0xbc546b62	-0.012965055
194	0xbdb0e685	-0.08637718
195	0xbd31ce46	-0.04340961
196	0x3dadf81a	0.08494587
197	0x3d5b6164	0.053559676
198	0x3dcb0ba0	0.09914327
199	0x3d96e905	0.07368664
200	0xbc3f9143	-0.011692348
201	0xbd60c1b8	-0.054872245
202	0x3deee5eb	0.11664947
203	0xbd2c3f58	-0.042052597
204	0x3c4be840	0.012445509
205	0xbd1ef9f9	-0.03881261
206	0xbdd5a0d9	-0.1043107
207	0xbc8a7bf9	-0.016904818
208	0x3c0c6be9	0.00857065
209	0x3da1be99	0.07897682
210	0xbcc300d7	-0.023804111
211	0x3da08201	0.07837296
212	0xbe27e702	-0.16396716
213	0x3efaeb5d	0.49007693
214	0xbe6bb2b6	-0.23017392
215	0xbd2b0fa9	-0.04176298
216	0x3c2878f0	0.01028274
217	0x3f87a483	1.059708
218	0xbd9ccd78	-0.076563776
219	0x3e941753	0.28924045
220	0xbe7cc8d5	-0.24685986
221	0x3db453a0	0.08805013
222	0xbdc54224	-0.09631756
223	0x3b40dbcb	0.0029427882
224	0x3c9ed75a	0.019389797
225	0x3d84a015	0.06475846
226	0xbc81b8c8	-0.01583518
227	0xbc2f987e	-0.010717509
228	0xbdfc8af3	-0.1233119
229	0xbcf5ed99	-0.030020522
230	0xbe1f9158	-0.15582788
231	0x3d152669	0.036413584
232	0x3c83f4b7	0.0161079
233	0x3e96a360	0.2942152
234	0xbdd234e9	-0.10263998
235	0x39113333	0.00013847351
236	0xbddc848b	-0.10767468
237	0xbda29028	-0.07937652
238	0xbd601a20	-0.054712415
239	0x3b84a4ed	0.004047981
240	0xbd370dab	-0.04469077
241	0x3c0dffc8	0.00866694
242	0xbd15c355	-0.036563236
243	0xbd307244	-0.043077722
244	0x3dc0a341	0.09406138
245	0xbe038fb4	-0.12847787
246	0x3e643faf	0.22289918
247	0xba778313	-0.0009441834
248	0x3d82a6ed	0.06379495
249	0xbe85397f	-0.2602043
250	0x3ca5b652	0.020228539
251	0xbe17823d	-0.14795776
252	0x3d5a80d2	0.05334551
253	0x3d499aa4	0.049219742
254	0x3dcbe951	0.09956611
255	0xba2faac1	-0.00067011645

encoder.2.bias f4 [24]
0	0xbdc5575d	-0.09635804
1	0x3e5d1057	0.21588264
2	0xbed1cc0f	-0.40975997
3	0xbfa14fce	-1.260248
4	0x360bc18d	2.0825275e-06
5	0x3e0963a0	0.1341691
6	0x3e9c8901	0.30573276
7	0x3e0252d4	0.12726909
8	0xbe14a5f1	-0.14516427
9	0xbf08fbb8	-0.5350909
10	0xbe3d0787	-0.18459903
11	0x3e537456	0.20649847
12	0xbf1f5cfc	-0.6225126
13	0x3e6ffe1c	0.23436779
14	0xbe480849	-0.1953441
15	0xbe467431	-0.19380261
16	0xbd0f7716	-0.03502568
17	0xbe930281	-0.28712848
18	0x3d76ac2c	0.06022279
19	0x3d2500ae	0.04028385
20	0x3e564382	0.2092419
21	0xbdde877a	-0.10865684
22	0x3d191c18	0.037380308
23	0x3e556c87	0.20842181

encoder.4.weight f4 [48, 24, 4, 4]
0	0xbc96148a	-0.01832034
1	0xbc12e6ca	-0.008966157
2	0xbd584807	-0.052803066
3	0xbccfc725	-0.025363514
4	0xbc6357c6	-0.013875907
5	0x3d9d75ab	0.07688459
6	0x3d82711d	0.06369231
7	0x3c2f56ae	0.010701818
8	0xbaa4f187	-0.0012584188
9	0x3c7f8e5d	0.015597907
10	0x3da85c91	0.08220781
11	0x3cc5046c	0.02404996
12	0xbd655f27	-0.055998947
13	0xbd89cf24	-0.06728962
14	0x3b339ae7	0.0027405561
15	0xbd82b01a	-0.06381245
16	0xbba5a2be	-0.005054801
17	0xbe8146e1	-0.2524939
18	0xbdf6c310	-0.12048924
19	0xbe122c7e	-0.14274785
20	0xbd28692b	-0.04111592
21	0xbe01b4fd	-0.12666698
22	0x3ca7f420	0.02050215
23	0xbd2e8fe5	-0.042617697
24	0xbc1462a5	-0.009056722
25	0x3d198e61	0.0374893
26	0x3e10b877	0.14132868
27	0x3ca05014	0.019569434
28	0x3a258bd7	0.0006315088
29	0x3dfaef60	0.122526884
30	0xbd8728b8	-0.06599563
31	0x3d4a490f	0.04938608
32	0x3de7463c	0.11292693
33	0x3e1600b6	0.14648709
34	0x3e85d154	0.26136267
35	0x3d8b5196	0.06802671
36	0x3e4ab611	0.19796015
37	0xbf958556	-1.1681316
38	0x3cafaf0c	0.021445774
39	0xbe131e14	-0.14366943
40	0x3e557e84	0.20849043
41	0x3e8e6425	0.2781078
42	0x3f105892	0.5638515
43	0x3d96e459	0.073677726
44	0xbd9db1b4	-0.0769991
45	0x3d3e6078	0.04647872
46	0xbe587860	-0.2113967
47	0xbd3f6a09	-0.046731982
48	0x3b6e4d04	0.0036361823
49	0x3c550421	0.013001473
50	0x3e006d3d	0.12541671
51	0x3a0c8d62	0.0005361644
52	0xbdd46ad3	-0.103719376
53	0xbf5157a4	-0.81774354
54	0x3d7fcc11	0.062450472
55	0xbe20e40f	-0.15711997
56	0xbe567028	-0.20941222
57	0xbeb4d2ae	-0.35316986
58	0x3e8f7cea	0.2802499
59	0xbda78db6	-0.08181326
60	0xbd85620e	-0.06512843
61	0xbe8b1fc7	-0.27172682
62	0xbe2f5275	-0.17121299
63	0x3d4ac220	0.04950154
64	0xbd9614d2	-0.0732819
65	0x3e05de41	0.13073064
66	0x3ca9fb57	0.020749731
67	0xbc7f4bc0	-0.015582025
68	0x3c644f9c	0.013934996
69	0x3d9c6c35	0.07637826
70	0x3e047362	0.1293464
71	0x3b778698	0.0037769433
72	0x3cd12a6c	0.025532924
73	0xbd236e7a	-0.03990028
74	0x3de962e9	0.11395819
75	0xbc023435	-0.007947017
76	0x3d3440f4	0.044007257
77	0xbd1cad8f	-0.038251456
78	0x3cd1bed7	0.025603695
79	0xbd78cfac	-0.060744926
80	0xbdc12f00	-0.09432793
81	0x3d6c2bef	0.057659086
82	0xbd82630a	-0.063665465
83	0xbded95f3	-0.11600866
84	0xbddf5d26	-0.109064385
85	0xbbe32591	-0.0069319685
86	0x3d73b1fc	0.05949591
87	0x3d95738a	0.07297428
88	0x3d87a434	0.06623116
89	0x3e6625be	0.22475335
90	0x3e008641	0.12551214
91	0x3c83b307	0.016076578
92	0xbd8e9c2a	-0.0696338
93	0xbd7f1ad8	-0.06228146
94	0xbd0c7ee9	-0.03430072
95	0xbcbd91f7	-0.02314089
96	0xbcc75456	-0.024332207
97	0x3d956962	0.07295491
98	0x3db0f94f	0.08641302
99	0x3d66b364	0.056323424
100	0x3c36f7e9	0.011167505
101	0xbe2cb970	-0.16867614
102	0x3d888896	0.06666677
103	0x3dc91575	0.09818546
104	0xbc3d763e	-0.011563836
105	0xbe3807b6	-0.17971691
106	0xbd7107e6	-0.058845423
107	0xbd8bfe80	-0.068356514
108	0x3d9d3f20	0.07678056
109	0xbab01880	-0.0013435036
110	0xbd365b5b	-0.044520717
111	0x3d84dd68	0.064875424
112	0xbd192f75	-0.037398774
113	0x3cc49078	0.02399467
114	0xbd38a3d8	-0.04507813
115	0x3c4294c7	0.011876292
116	0xbd6734d2	-0.056446858
117	0x3e9bff9e	0.30468458
118	0xbe1dc4c4	-0.15407091
119	0x3c0fc9da	0.0087761525
120	0x3c5fc36b	0.013657431
121	0xbd6c3721	-0.057669763
122	0xbddcaceb	-0.10775169
123	0x3dd32011	0.103088506
124	0xbd88c22e	-0.06677662
125	0xbd25c0c2	-0.04046703
126	0x3d1bca49	0.03803471
127	0xbdbdec9c	-0.09273645
128	0xbd314a07	-0.04328349
129	0x3d2872d2	0.041125126
130	0xbda5920e	-0.08084498
131	0xbd45d5b6	-0.048299514
132	0x3ddbcf11	0.10732854
133	0xbe007110	-0.1254313
134	0x3d4beec2	0.049788244
135	0xbc9a66b1	-0.018847795
136	0xbc4c28c5	-0.012460892
137	0x3d9ee466	0.07758407
138	0x3e6ec930	0.23318934
139	0x3d9739ca	0.07384069
140	0x3cce5bf5	0.025190333
141	0xbd057d78	-0.03259036
142	0xbd476ac4	-0.048685804
143	0xbd5c69d0	-0.05381185
144	0xbdae5aa9	-0.08513386
145	0x3cf687c8	0.030094042
146	0x3c11c0a8	0.0088960305
147	0xbdc4d04c	-0.09610042
148	0x3ddc61f5	0.10760871
149	0x3e67c5f1	0.22634102
150	0x3dcf536b	0.101233326
151	0x3e3c6197	0.18396603
152	0x3cab427a	0.020905722
153	0x3dfd4da6	0.12368326
154	0x3e3b1012	0.18267849
155	0xbd6d8ecc	-0.05799751
156	0x3e477262	0.19477227
157	0xbd8a55bf	-0.06754636
158	0x3eb1c9e5	0.34724346
159	0x3e1c7f41	0.15282919
160	0x3cbe4e41	0.023230674
161	0x3d2f53b2	0.042804427
162	0x3c84bc91	0.016203197
163	0xbc5e05e7	-0.013551212
164	0x3d8d948b	0.06913098
165	0xbe9a22f3	-0.3010479
166	0x3c85b915	0.016323606
167	0xbc92bf98	-0.017913625
168	0x3d653459	0.055958126
169	0x3d9bbadd	0.07604001
170	0x3ea01ae2	0.3127051
171	0xbac4229c	-0.0014963928
172	0xbd0af7d9	-0.033927772
173	0xbd8c8529	-0.06861336
174	0xbd3d6801	-0.046241764
175	0xbda7935e	-0.08182405
176	0xbbd5e2cf	-0.006527282
177	0xbcca9448	-0.02472891
178	0xbd78aee9	-0.060713682
179	0xbd5167aa	-0.051124252
180	0xbd51a0f8	-0.051178902
181	0x3de145d9	0.109996505
182	0xbdcfae76	-0.10140698
183	0xbdd5cf3c	-0.104399174
184	0xbd0a677c	-0.033790097
185	0xbd6c141f	-0.057636376
186	0xbd63a91d	-0.0555812
187	0x3d970811	0.073745854
188	0xbcee0476	-0.029054862
189	0x3b3357a5	0.0027365473
190	0xbd379f6e	-0.04482978
191	0x3d706b70	0.05869621
192	0xbd0b1d6b	-0.033963602
193	0x3d13e636	0.036108218
194	0xbe05fd25	-0.13084848
195	0xbd3fef1d	-0.046858896
196	0xbd126704	-0.035742775
197	0x3cac191b	0.021008065
198	0x3e566098	0.20935285
199	0xbb7e91aa	-0.0038844147
200	0xbdd5679b	-0.10420152
201	0xbc8b75d6	-0.017023962
202	0xbe7eaa18	-0.24869573
203	0x3d3eb8ff	0.046563145
204	0xbdc15800	-0.09440613
205	0xbc8989da	-0.016789366
206	0xbe7a89b1	-0.24466588
207	0x3ed251a0	0.410779
208	0x3d01b2ce	0.031664662
209	0xbd46316f	-0.048386987
210	0xbdb6335a	-0.08896513
211	0xbd0e089d	-0.034676183
212	0xbcf8fccc	-0.03039398
213	0x3f1c55d5	0.6106847
214	0x3db802f4	0.08984938
215	0x3d9fddee	0.078060016
216	0x3d599966	0.053124808
217	0x3e13b659	0.14425029
218	0xbe60ee26	-0.21965846
219	0x3bab01ff	0.005218744
220	0xb8b2e569	-8.5304324e-05
221	0x3dee645a	0.11640234
222	0x3e04930e	0.12946722
223	0x3d72499e	0.059152238
224	0xbdb4ae01	-0.08822251
225	0xbcc7496c	-0.024327002
226	0x3d364377	0.044497933
227	0xbc76570b	-0.015035401
228	0x3c3de398	0.011589907
229	0x3e15b430	0.14619517
230	0x3c8cafde	0.017173704
231	0xbc3e8532	-0.011628436
232	0xbda296b6	-0.07938902
233	0x3ca62b31	0.020284267
234	0x3e00d832	0.12582472
235	0x3d6813d9	0.056659553
236	0x3d79aaad	0.060953785
237	0x3dfecd1c	0.12441465
238	0x3de137cb	0.1099697
239	0x3d9927e4	0.07478312
240	0xbd00e8d0	-0.031472027
241	0xbdcddec5	-0.100522555
242	0xbc65ce99	-0.0140263075
243	0x3c850264	0.016236492
244	0xbda6b573	-0.081400774
245	0xbcd8f81b	-0.026485493
246	0x3d553940	0.05205655
247	0x3cc5f183	0.024163013
248	0xbcad8685	-0.021182308
249	0x3dbb1d43	0.091364406
250	0x3dcceadc	0.10005733
251	0xbcfbc2ca	-0.030732531
252	0x3d70be85	0.058775444
253	0x3d2dd6dd	0.042441238
254	0x3c9a5aa0	0.018842041
255	0x3ccafb67	0.024778081

encoder.4.bias f4 [48]
0	0x3d8c4e04	0.06850818
1	0xbc8ce60c	-0.017199539
2	0x3d4c5f51	0.04989559
3	0x3d9de2cf	0.07709276
4	0xbdbd3414	-0.09238449
5	0x3e1ca67d	0.15297885
6	0x3cd4a4f4	0.025957562
7	0x3d7b6f0a	0.061385192
8	0x3e855a8c	0.26045644
9	0x3e1e4b72	0.15458468
10	0x3e2fd805	0.17172249
11	0x3ca4b651	0.020106466
12	0xbd4e546b	-0.050373476
13	0x3de7bf8a	0.1131583
14	0xbddd603e	-0.10809372
15	0x3ec1b4b3	0.37833175
16	0xbd88969a	-0.0666935
17	0x3dbfe983	0.09370711
18	0x3df06601	0.11738206
19	0xbdb8bb93	-0.09020152
20	0x3c930de4	0.01795096
21	0x3e88283e	0.26593202
22	0xbd89ba1a	-0.06724949
23	0xbd6a95cf	-0.057271775
24	0x3cf99d90	0.03047064
25	0x3cf3aae9	0.029744582
26	0x3d9de8aa	0.07710393
27	0x3e2263cf	0.15858386
28	0xbe0c582f	-0.13705514
29	0xbca644e0	-0.020296514
30	0x3e2d2c7f	0.16911505
31	0xbd10a899	-0.035317037
32	0x3d90a19e	0.07062076
33	0x3dfd06aa	0.12354787
34	0x3d970076	0.07373135
35	0xbcccdd6b	-0.025007924
36	0x3d09c5cd	0.033635903
37	0x3dcffb45	0.10155348
38	0x3dd8fbd6	0.10594909
39	0x3e6eec0e	0.23332235
40	0x3def41b1	0.116824515
41	0xbe020fed	-0.12701388
42	0x3cc95448	0.024576321
43	0x3d6c996e	0.05776351
44	0x3e041bd7	0.12901245
45	0x3e19bad9	0.15012683
46	0x3e1e0f24	0.15435463
47	0xbe3e1b02	-0.1856499

encoder.6.weight f4 [96, 48, 4, 4]
0	0xbc6c6b79	-0.01442992
1	0xbdab10c0	-0.08352804
2	0x3a272e37	0.0006377431
3	0x3d22cc9f	0.039745923
4	0xbbd16e53	-0.0063913255
5	0x3c59cb64	0.013293121
6	0xbdef6fba	-0.11691232
7	0xb947c156	-0.00019050142
8	0xbc40f5b8	-0.011777334
9	0x3bbddd64	0.005794214
10	0xbe1935df	-0.14961956
11	0xbd9c9142	-0.07644893
12	0x3c85bdf2	0.016325925
13	0x3d4a4c15	0.049388964
14	0xbe5cafc6	-0.21551427
15	0xbd94e152	-0.07269539
16	0xbc4f7933	-0.0126631735
17	0x3dde7a0c	0.10863122
18	0xbdb4f156	-0.08835094
19	0xbd524dce	-0.05134373
20	0xbd8e4006	-0.06945805
21	0x3e7c5b09	0.24644102
22	0x3e0375c5	0.12837894
23	0x3ddec5cf	0.10877573
24	0x3ca5766c	0.02019807
25	0x3df2dbe3	0.11858346
26	0xbd19f714	-0.037589148
27	0xbd4d9da6	-0.050199173
28	0xbd358cd2	-0.04432375
29	0xbc8d456e	-0.01724502
30	0xbb704085	-0.003665955
31	0x3d2e8797	0.042609777
32	0x3dc74120	0.097292185
33	0xbc8979b6	-0.01678167
34	0x3d7bb147	0.06144836
35	0xbe31184f	-0.17294429
36	0xbd9b3f47	-0.075804286
37	0xbed30a2e	-0.41218704
38	0x3ec2777b	0.3798178
39	0xbd8c57cb	-0.06852683
40	0x3d29eb6a	0.041484274
41	0xbe88fa19	-0.2675331
42	0xbd0b2694	-0.033972338
43	0xbbd8dde5	-0.0066182488
44	0xbd3e8e47	-0.046522405
45	0x3e0c6994	0.1371215
46	0xbe01a3e3	-0.12660174
47	0x3caac9c9	0.020848172
48	0x3d1823af	0.037143406
49	0xbda928bf	-0.08259725
50	0xbc948eb1	-0.018134447
51	0x3d84aade	0.06477903
52	0x3e20cf22	0.15704015
53	0xbf01ba58	-0.50674963
54	0x3ee0bef4	0.43895686
55	0xbe30bf84	-0.17260557
56	0xbdb57816	-0.08860795
57	0x3f4fee3a	0.8122288
58	0xbc8a97a8	-0.016918018
59	0x3ae66108	0.0017576525
60	0x3950430e	0.00019861406
61	0x3d659884	0.056053653
62	0xbde444d1	-0.11145938
63	0x3d600c8b	0.054699462
64	0xbd345549	-0.044026647
65	0xbe5ac167	-0.2136284
66	0xbd92e1f4	-0.071720034
67	0x3cd317a5	0.02576811
68	0xbda9b58d	-0.08286581
69	0xbd0eb018	-0.034835905
70	0x3d3de136	0.046357356
71	0x3dbc285e	0.09187387
72	0xbd640c09	-0.05567554
73	0x3d79fb36	0.06103059
74	0xbec44594	-0.38334334
75	0x3d2106a8	0.03931299
76	0xbbe1644e	-0.0068784123
77	0x3cc2d856	0.023784798
78	0xbdeba431	-0.115059264
79	0x3e1d3149	0.15350832
80	0xbd569b3d	-0.05239414
81	0x3b1f8b6a	0.0024344572
82	0xbd58b9b7	-0.052911486
83	0x3d8206d7	0.06348961
84	0x3d415667	0.04720154
85	0xbe7f5f5a	-0.24938717
86	0xbdccdc89	-0.10003001
87	0xbce859af	-0.028363077
88	0x3b2bd3a7	0.0026218684
89	0xbec92452	-0.39285523
90	0x3f92a33b	1.1456064
91	0xbe98587b	-0.29755005
92	0xbc994220	-0.018708289
93	0xbe0d8146	-0.13818845
94	0xbd3be501	-0.045872692
95	0x3d73ba2c	0.05950372
96	0x3c324f22	0.010883125
97	0x3bb14316	0.0054096086
98	0x3c9ed576	0.019388895
99	0x3cf8109d	0.03028136
100	0x3d9fe6ca	0.078076914
101	0x3e24c55c	0.16090912
102	0xbf1759c9	-0.59121376
103	0x3d055e5e	0.0325607
104	0x3e056b12	0.13029125
105	0x3ddd946e	0.10819326
106	0xbf0b5843	-0.5443155
107	0x3e2b94ad	0.16755934
108	0xbc462d25	-0.012095724
109	0xbd5c2690	-0.053747714
110	0x3c9204fd	0.017824644
111	0x3d38cca8	0.04511705
112	0xbc655f25	-0.013999735
113	0x3cb3818b	0.021912357
114	0x3cc2a9dd	0.023762638
115	0x3cbcffa6	0.023071121
116	0xbdc5292c	-0.096269935
117	0xbef3e941	-0.47638896
118	0x3ee17068	0.44031072
119	0xbd5229da	-0.051309444
120	0x3d09e686	0.03366711
121	0xbd2dae9b	-0.042402845
122	0x3e25db83	0.16197018
123	0xbd0ef2bc	-0.03489946
124	0xbd1739e9	-0.03692046
125	0x3bf3f15a	0.007444543
126	0x3e2e94f7	0.17049013
127	0xbd717d30	-0.05895728
128	0x3cc2b075	0.023765782
129	0x3e11ba3f	0.14231203
130	0xbdb9cf58	-0.09072751
131	0xbcc0a01f	-0.023513852
132	0xbe042326	-0.12904033
133	0x3e45f28a	0.19330803
134	0x3e5058ee	0.20346424
135	0x3d8b1d15	0.06792656
136	0xbdff7524	-0.12473515
137	0x3ede099d	0.4336671
138	0xbe7d21fa	-0.24719992
139	0xbd375695	-0.044760305
140	0x3dd64f83	0.104643844
141	0xbdcafde4	-0.09911707
142	0x3db05fa0	0.08611989
143	0xbd011161	-0.031510714
144	0x3da34825	0.07972745
145	0x3d863e5a	0.06554861
146	0x3d09c2f9	0.033633206
147	0x3d13a89a	0.036049463
148	0x3ca0836a	0.019593913
149	0x3eb8908d	0.36047783
150	0x3a687b64	0.00088684843
151	0xbdd6199a	-0.10454102
152	0xbbd3103b	-0.006441144
153	0x3e5fcc09	0.21855177
154	0xbe3e4f39	-0.18584909
155	0x3dad91db	0.08475085
156	0x3c098b67	0.0083950525
157	0xbc9ae912	-0.018909965
158	0x3c702e33	0.014659452
159	0x3cda17b8	0.026622638
160	0xbd69d066	-0.05708351
161	0xbc8c6b8f	-0.017141132
162	0xbd88d043	-0.06680348
163	0xbc5bc4ad	-0.01341359
164	0x3c9444e9	0.018099265
165	0x3e5faee9	0.21844067
166	0xbde6078c	-0.11231908
167	0x3d6422ee	0.055697374
168	0xbd88c70d	-0.06678591
169	0x3e4cdf51	0.20007063
170	0xbe844f13	-0.2584158
171	0xbbbeea2f	-0.0058262567
172	0xbd05f0a0	-0.03270018
173	0x3ce29642	0.02765954
174	0x3d994277	0.0748338
175	0x3b1fe8f7	0.0024400332
176	0xbcd8ecff	-0.026480196
177	0xbdef6a9c	-0.11690256
178	0xb95bc3fd	-0.00020958479
179	0xbd1eccee	-0.038769655
180	0x3cf934b1	0.030420633
181	0xbdda6c31	-0.10665167
182	0xbd05e31d	-0.032687295
183	0xbd870463	-0.065926336
184	0x3d18f29a	0.037340738
185	0x3a9ea8f4	0.0012104795
186	0xbe07ecde	-0.13273951
187	0xbd4779d0	-0.048700154
188	0xbb844d71	-0.004037552
189	0xbc8dae8f	-0.01729515
190	0x3dbba7a7	0.091628365
191	0xbdd9b22f	-0.10629689
192	0x3ceab89c	0.028652482
193	0xbcfb0632	-0.030642603
194	0x3c6d0a82	0.014467837
195	0x3cd1283f	0.025531886
196	0x3ab8ed91	0.0014108886
197	0x3bdeb012	0.0067958916
198	0x3d31fcdb	0.043454032
199	0xbb10852f	-0.002205204
200	0xbc3cd0a4	-0.011524353
201	0x3c8b5d0b	0.01701214
202	0x3d1da50e	0.038487487
203	0x3c569f0d	0.013099444
204	0xbc05ddec	-0.008170586
205	0xbc598ee8	-0.0132787
206	0x3a2987e6	0.0006467089
207	0xbcd4df5c	-0.025985412
208	0x3d027cdc	0.031857356
209	0x3c6367d0	0.013879731
210	0x3c8a6a4a	0.016896386
211	0x3cf893b7	0.030343873
212	0x3d015485	0.031574745
213	0x3e54fe5c	0.20800155
214	0x3dfcea7b	0.12349411
215	0xbde69e81	-0.11260701
216	0xbcb77752	-0.022395764
217	0xbe6d3e52	-0.23168305
218	0x3e4b792e	0.19870445
219	0xbb89ef20	-0.004209414
220	0x3c4df1ba	0.012569839
221	0x3b59daff	0.0033242104
222	0xbd95fdbd	-0.07323787
223	0xbcf0a3f3	-0.029375052
224	0x3dbf7572	0.09348573
225	0xbe6cb5dd	-0.2311625
226	0x3e116e1a	0.14202157
227	0xbd0bc3fe	-0.03412246
228	0xbe00793c	-0.12546247
229	0x3ec4ec9c	0.3846177
230	0x3d616e78	0.05503699
231	0xbda37332	-0.07980956
232	0xbcec689c	-0.028858475
233	0xbde7e955	-0.113238014
234	0x3ec00d85	0.37510315
235	0xbe31d759	-0.17367305
236	0x3dddf742	0.10838176
237	0xbdcff25a	-0.10153647
238	0xbdb33793	-0.08750834
239	0x3d221d1a	0.039578535
240	0xbd199fbd	-0.037505854
241	0xbe01e8e4	-0.12686497
242	0xbdc932aa	-0.098241165
243	0xbc03ef2d	-0.008052629
244	0x3d617cc2	0.05505062
245	0x3ec809b6	0.3906991
246	0x3e241f04	0.16027457
247	0xbd93a30e	-0.072088346
248	0x3a72f823	0.00092685426
249	0xbeff4a77	-0.498615
250	0x3e0c9b8d	0.13731213
251	0x3cd96fde	0.0265426
252	0xbce7342c	-0.02822312
253	0xbd738006	-0.059448265
254	0x3e37f49b	0.17964403
255	0xbbe74523	-0.0070578023

encoder.6.bias f4 [96]
0	0x3e2872c3	0.16450028
1	0x3e4c7e88	0.19970143
2	0x3ebacad6	0.36482877
3	0xbc490b4c	-0.01227076
4	0x3e03ec57	0.12883125
5	0xbd33f90a	-0.043938674
6	0x3e761a98	0.24033582
7	0xbcca7e94	-0.02471856
8	0xbc889cbf	-0.016676305
9	0x3ea9ea62	0.33186632
10	0x3e5cc835	0.21560748
11	0xbe80efb3	-0.25182876
12	0x3dd73d7a	0.105097726
13	0x3ea85ae2	0.32881838
14	0xbec19650	-0.37809992
15	0xbd01a791	-0.031653944
16	0x3eb5142e	0.35366958
17	0xbd83b728	-0.06431419
18	0xbe209cc9	-0.15684809
19	0xbd229f4e	-0.039702706
20	0x3e0c8287	0.13721667
21	0x3eb3de03	0.3513032
22	0x3d78ce68	0.06074372
23	0x3d4f2c8b	0.05057959
24	0xbe129a74	-0.14316732
25	0x3ebb0a88	0.36531472
26	0x3d8233ad	0.063575126
27	0x3e92ef88	0.28698373
28	0xbd3bb08b	-0.04582266
29	0xbd44b0c6	-0.048020147
30	0x3e37834d	0.17921181
31	0x3ed6d6c5	0.4196073
32	0x3ebd6445	0.36990562
33	0xbb944966	-0.0045253513
34	0x3d1cc46e	0.038273267
35	0x3ee97140	0.45594215
36	0xbd244346	-0.04010322
37	0x3c933d5e	0.017973598
38	0xbc438fe9	-0.011936166
39	0x3d25092c	0.04029195
40	0x3eacaa5f	0.33723733
41	0x3db4579f	0.08805775
42	0x3eab1b59	0.33419302
43	0x3ea877dd	0.32903948
44	0xbe190c48	-0.14946091
45	0x3d6ddb1d	0.05807029
46	0x3c25804b	0.010101388
47	0xbd77e052	-0.060516663
48	0x3dd08186	0.10180955
49	0xbc8efba0	-0.017453969
50	0x3cfd5e10	0.030928642
51	0x3e305f48	0.17223847
52	0x3ec7de6e	0.39036888
53	0x3e61924b	0.22028463
54	0x3e33f608	0.17574322
55	0x3e8aa991	0.27082494
56	0x3e41c830	0.18924022
57	0x3d6dc385	0.05804779
58	0xbe817a7c	-0.2528876
59	0xbd3bb4e8	-0.045826823
60	0xbe121739	-0.14266671
61	0x3ea70d6e	0.32627434
62	0xbe5beb83	-0.2147656
63	0x3ed25eb0	0.41087866
64	0x3ec04bdd	0.3755788
65	0xbbd423b8	-0.0064739846
66	0x3ea37e79	0.31932428
67	0x3e4d806b	0.20068519
68	0x3e17292c	0.147618
69	0x3d2dcdee	0.042432718
70	0xbdaed7e0	-0.08537269
71	0x3db34f12	0.08755316
72	0x3dcb6aa9	0.09932453
73	0x3e39ce30	0.1814506
74	0x3e8392f5	0.25698057
75	0xbd74b84a	-0.059746064
76	0xbc8247a9	-0.01590331
77	0xbe1ca360	-0.15296698
78	0x3eda9336	0.42690438
79	0x3eb3adb9	0.35093477
80	0xbd835192	-0.06412043
81	0xbd225d9d	-0.039640058
82	0x3e8d6063	0.276126
83	0x3d143d88	0.036191493
84	0x3d8f4be1	0.06996895
85	0xbe8889d4	-0.26667655
86	0xbd9549e2	-0.07289483
87	0x3e34e4b6	0.17665371
88	0x3cf95a85	0.03043867
89	0xbd2a65e5	-0.04160108
90	0x3e9ec241	0.3100758
91	0x3de3d0e2	0.111238256
92	0x3e028a13	0.12747984
93	0xbc2b1e49	-0.010444232
94	0xbc995c4f	-0.018720774
95	0xbd245869	-0.040123377

decoder.0.weight f4 [96, 48, 4, 4]
0	0xbce59e6b	-0.028029641
1	0x3beadbc5	0.007167312
2	0x3df72d38	0.12069172
3	0x3d19b8ff	0.03752994
4	0xbc8c6f2f	-0.01714286
5	0x3b3a94c9	0.002847003
6	0xbe06eb33	-0.13175659
7	0xbcc955fe	-0.024577137
8	0x3bb02ec3	0.005376668
9	0x3e49c08d	0.19702359
10	0xbe7539c6	-0.2394782
11	0xbbf7c5f1	-0.0075614383
12	0xbd3e335f	-0.04643571
13	0x3c1bfad8	0.009520255
14	0xbe2391be	-0.15973565
15	0xbad8b708	-0.001653404
16	0xbc9387ff	-0.018009184
17	0xbb73f72b	-0.003722618
18	0xbc819588	-0.015818372
19	0x3cd2aab0	0.025716156
20	0xbc7311b2	-0.014835762
21	0xbc880749	-0.016605036
22	0xbe73fa0c	-0.23825854
23	0xbda2a802	-0.07942201
24	0xbbfc1d65	-0.007693934
25	0x3d9a2187	0.07525926
26	0x3c457c28	0.012053527
27	0x3bbab16a	0.005697419
28	0xbcee3914	-0.029079951
29	0xbc571396	-0.013127228
30	0xbe33861c	-0.17531627
31	0x3d9a49b5	0.0753359
32	0xbd06e917	-0.032937136
33	0xbde49966	-0.11162071
34	0x3cf17cf4	0.029478528
35	0xbdba48d4	-0.09095922
36	0x3d52fa7e	0.05150842
37	0x3f09fb33	0.53898925
38	0xbedf2166	-0.43580168
39	0x3daaa6ef	0.08332621
40	0x3c8b0f7d	0.016975159
41	0xbcb9eeb9	-0.02269684
42	0xbc808c5c	-0.015691929
43	0xbe1ff2c7	-0.15619956
44	0x3bcbc62b	0.006218692
45	0xbdea24b4	-0.11432782
46	0x3b7d5621	0.0038656073
47	0xbac71ef6	-0.0015191722
48	0x3c4fee25	0.012691055
49	0xbd938dfb	-0.07204815
50	0xbe05d0fd	-0.13068004
51	0xbc0b3109	-0.008495578
52	0x3d6a7427	0.057239678
53	0xbda92a8f	-0.082600705
54	0x3e19ecf4	0.15031797
55	0xbe766859	-0.24063243
56	0x3e117d26	0.14207897
57	0x3e93e131	0.28882745
58	0x3e960e5c	0.2930783
59	0x3d5dd0e7	0.054154303
60	0x3c5bc8f7	0.013414613
61	0xbd47cd28	-0.048779637
62	0x3bca80b4	0.0061798934
63	0xbd062788	-0.032752544
64	0x3d16e2af	0.036837276
65	0xbc210cae	-0.009829683
66	0x3d92a204	0.07159808
67	0xbc883d14	-0.016630687
68	0x3ba51658	0.005038064
69	0x3c36d821	0.011159928
70	0xbd2f831c	-0.042849645
71	0xbd9dd979	-0.07707495
72	0x3d0d638b	0.03451876
73	0x3b7a7d4f	0.0038221662
74	0x3ddb8f02	0.10720636
75	0xbd1d2300	-0.038363457
76	0xbd0ee475	-0.034885842
77	0x3c99279d	0.018695647
78	0x3d050457	0.032474842
79	0x3ca40c38	0.020025358
80	0x3b853211	0.0040648063
81	0x3d7373eb	0.05943672
82	0xbdbc000f	-0.09179699
83	0x3cdedb2c	0.027204119
84	0xbc9f3422	-0.019434039
85	0x3ea206ce	0.31645817
86	0x3f090c91	0.535348
87	0xbc7db6cd	-0.015485478
88	0xbdb50f19	-0.0884077
89	0x3ef0d497	0.47037193
90	0xbe0586c7	-0.13039695
91	0x3bb01a5b	0.0053742356
92	0xbbefbe4b	-0.007316386
93	0x3ddfc6ce	0.10926591
94	0xbd93cbcf	-0.07216608
95	0xbd0119d1	-0.03151876
96	0x3b62a117	0.003458088
97	0xbcc4b2db	-0.024011066
98	0xbd29b1e6	-0.041429423
99	0xbcd16460	-0.025560558
100	0x3dfe6e89	0.12423427
101	0x3c304ea1	0.010760934
102	0x3ddcd691	0.10783113
103	0x3d0baace	0.03409844
104	0x3d6e50f7	0.058182683
105	0x3ab929eb	0.0014126872
106	0xbd99535e	-0.07486604
107	0x3caa1406	0.020761501
108	0xbc0d5508	-0.00862623
109	0xbbca777a	-0.0061787935
110	0xbde58788	-0.11207491
111	0xbc8d01f8	-0.017212853
112	0x3d24dfb4	0.040252402
113	0xbbf42153	-0.0074502616
114	0xbe14f609	-0.1454698
115	0xbd97d0c0	-0.07412863
116	0x3c2a493d	0.010393438
117	0xbc5227e9	-0.012826898
118	0xbe17e203	-0.1483231
119	0x3c9dcf3b	0.019263854
120	0x3c9367e6	0.017993879
121	0x3b6ca6b2	0.00361101
122	0xbe6f9dfd	-0.23400111
123	0x3d134c19	0.035961244
124	0x3c45d6e3	0.012075159
125	0xbd582dc6	-0.052778028
126	0x3d57a290	0.052645266
127	0xbd7fb808	-0.062431365
128	0x3c80e56b	0.015734395
129	0x3dc41f22	0.095762506
130	0xbc8f29d2	-0.017475996
131	0x3d352a68	0.044229895
132	0xbc0ed901	-0.00871873
133	0xbc18d260	-0.009327501
134	0x3bb23466	0.0054383753
135	0x3dad784b	0.0847021
136	0xbc61fc28	-0.013793029
137	0xbdb77240	-0.08957338
138	0xbe4d59ea	-0.2005383
139	0x3d14c877	0.03632399
140	0xbbd3c3ed	-0.006462565
141	0xb9f8d8dc	-0.0004746382
142	0xbae3ef72	-0.0017390086
143	0x3b7e3c5c	0.0038793301
144	0xbd07fddf	-0.033201095
145	0xbd662e0f	-0.05619627
146	0xbd76143c	-0.06007789
147	0x3cd1f2ef	0.025628535
148	0x3d86cc33	0.06581917
149	0x3dde388c	0.10850629
150	0x3ec245d8	0.37943912
151	0xbd10d169	-0.03535596
152	0x3b46dd29	0.0030344224
153	0xbe258e92	-0.16167668
154	0x3e68f3f2	0.22749308
155	0xbda5622b	-0.08075365
156	0x3c97bdcd	0.018523121
157	0xbdde8ac1	-0.10866309
158	0xbe3babe0	-0.18327284
159	0x3cb70870	0.02234289
160	0xbd15b468	-0.036549002
161	0x3d3c84a9	0.046024952
162	0xbdc5ac85	-0.09652046
163	0x3cb93dc5	0.022612462
164	0x3c3c19c2	0.0114807505
165	0xbd2bb5ab	-0.0419213
166	0xbe001590	-0.12508225
167	0x3cafbcc4	0.021452315
168	0xbe0c9ee3	-0.13732485
169	0x3e2c5e79	0.16832913
170	0x3e97221d	0.29518214
171	0x3bfc0709	0.0076912683
172	0xbcb59a24	-0.022168227
173	0xbca5a1f9	-0.020218836
174	0x3d2883ff	0.041141506
175	0xbc84c12c	-0.016205393
176	0x3c83f9a3	0.016110247
177	0x3d11a4d3	0.03555758
178	0xbc18637b	-0.009301062
179	0x3c06bf79	0.008224362
180	0xbdfaf849	-0.12254388
181	0xb9a47810	-0.0003136997
182	0x3ec4bc08	0.38424706
183	0xbd19a040	-0.037506342
184	0x3d8831d9	0.06650133
185	0xbe65de45	-0.2244807
186	0x3ee88966	0.45417327
187	0x3cc37c46	0.02386297
188	0x3ba0c2c9	0.0049060327
189	0xbbe89ef0	-0.007099025
190	0x3cef99f8	0.029248223
191	0xbc6486c7	-0.013948149
192	0x3d4c5ed1	0.04989511
193	0x3d06dfdd	0.032928336
194	0xbdb71f11	-0.08941472
195	0x3c89acac	0.01680597
196	0xbd0d59ba	-0.034509398
197	0xbbc8b30c	-0.0061248597
198	0x3c59e6d9	0.013299667
199	0x3c97ba49	0.018521445
200	0x3d872835	0.06599466
201	0xbc73849f	-0.014863162
202	0xbca83bb7	-0.020536287
203	0x3cb7c10b	0.022430917
204	0xbc0f711c	-0.008754995
205	0xbbce1551	-0.006289162
206	0xbd93324d	-0.071873285
207	0xbd132aca	-0.03592948
208	0xbb4093a2	-0.002938487
209	0xbd00d382	-0.03145171
210	0x3db090cc	0.08621368
211	0x3c84caac	0.016209923
212	0xbc741e65	-0.014899825
213	0xbd20e4bd	-0.03928064
214	0xbd06e3e2	-0.03293217
215	0x3c592b0d	0.013254893
216	0xbd51c746	-0.051215433
217	0xbc2031af	-0.0097774705
218	0xbdeaaef2	-0.114591494
219	0xbcdb6fff	-0.026786802
220	0xbcbe8585	-0.023257026
221	0x3cfec000	0.031097412
222	0xbce182f0	-0.027528256
223	0xbca24c8c	-0.019811891
224	0xbbf360ae	-0.0074272966
225	0xbca18aa2	-0.019719426
226	0xbcc262fc	-0.02372884
227	0xbd13bd31	-0.0360691
228	0x3b705035	0.00366689
229	0xbeea05f0	-0.45707655
230	0xbca74f59	-0.020423578
231	0x3dd514cc	0.10404357
232	0x3d4e5a2b	0.05037896
233	0x3c947cea	0.01812597
234	0x3d05656f	0.032567438
235	0x3ca08e3c	0.019599073
236	0xbcec7af9	-0.028867232
237	0xbe2835a7	-0.16426717
238	0xbac3e1ad	-0.0014944576
239	0x3d4908d2	0.049080677
240	0x3c61ea93	0.013788837
241	0x3da3a3cf	0.079902284
242	0xbc4d69ca	-0.012537429
243	0xbbd5f822	-0.006529824
244	0x3cbe0d51	0.02319971
245	0xbd9b6d09	-0.07589156
246	0xbcdde8c4	-0.02708853
247	0xbc5e56ae	-0.013570471
248	0xbd01aa3e	-0.031656496
249	0xbe9014cd	-0.2814087
250	0xbd839336	-0.06424563
251	0x3d614816	0.055000387
252	0xbd1a03d4	-0.037601307
253	0xbbd311dc	-0.006441338
254	0x3accf394	0.0015636557
255	0x3c2c70a2	0.010524901

decoder.0.bias f4 [48]
0	0xbe69572a	-0.22787157
1	0xbe87236d	-0.26394215
2	0x3e0fa6d2	0.1402848
3	0x3f7b7ff5	0.9824212
4	0x3da67293	0.08127322
5	0x3f2babf4	0.67059255
6	0x3f03c1d3	0.5146763
7	0x3e1072af	0.14106248
8	0x3e93f7f9	0.28900126
9	0x3e34d2c7	0.1765853
10	0xbe5d1c43	-0.21592812
11	0x3e10f3d2	0.1415551
12	0xbe0f0a88	-0.13968861
13	0x3e144f5b	0.14483397
14	0x3f231f28	0.63719416
15	0x3f7ac2e7	0.9795365
16	0x3e1b4052	0.15161255
17	0x3eb30be1	0.3497
18	0xbd441a07	-0.047876384
19	0x3e98ed4b	0.2986854
20	0x3e73ba6f	0.23801588
21	0x3ea8eb5e	0.3299207
22	0x3ef0c483	0.47024927
23	0x3f0067a9	0.5015817
24	0x3f511453	0.8167164
25	0x3f3cbae9	0.737227
26	0x3e8e721a	0.27821428
27	0x3f96d20a	1.1782849
28	0x3ed05a8f	0.4069409
29	0x3eefa34c	0.46804273
30	0x3efa2b5f	0.48861215
31	0x3f1b30cb	0.6062133
32	0x3dbad2fa	0.09122272
33	0x3db0ed62	0.08639027
34	0x3f2dee72	0.67941964
35	0x3e18002a	0.14843813
36	0x3faa949e	1.3326604
37	0x3f7afd31	0.9804259
38	0xbde7cb14	-0.11318031
39	0x3f0bfd18	0.54683065
40	0x3e72dc59	0.23716868
41	0x3fe600ab	1.7968954
42	0x3fb6bc80	1.4276276
43	0x3ef8cb53	0.48592624
44	0xbb0ab955	-0.0021167595
45	0x3e8bc6e6	0.27300185
46	0x3e520204	0.20508581
47	0x3e0e3610	0.1388781

decoder.2.weight f4 [48, 24, 4, 4]
0	0xbaca1bb0	-0.0015419628
1	0x3f2bc8a6	0.6710304
2	0x3e950faf	0.29113528
3	0x3f6787a4	0.90441346
4	0x3db0ae9d	0.08627055
5	0x3e04e900	0.12979507
6	0x3e45475e	0.19265506
7	0x3d46dd23	0.048550736
8	0xbd96adb4	-0.0735735
9	0x3e0e0f89	0.13873114
10	0x3cda55ae	0.026652183
11	0x3d695d60	0.056973815
12	0x3c10fa5d	0.008848754
13	0x3db4f993	0.08836665
14	0x3cced5dc	0.02524846
15	0xbd9e0cb0	-0.07717264
16	0x3d1e6a15	0.038675386
17	0xbe34f29f	-0.17670678
18	0x3d0767eb	0.03305809
19	0x3dfbc364	0.12293127
20	0xbdad94f5	-0.08475677
21	0x3ebec2db	0.37258038
22	0x3e71c929	0.23611893
23	0x3ddd13c9	0.10794789
24	0x3c4c8d6b	0.012484889
25	0xbea81e40	-0.3283558
26	0x3e1634c8	0.14668572
27	0x3c0c1153	0.008549052
28	0xbd591bd1	-0.053005043
29	0xbe18a048	-0.14904892
30	0xbd7ffb11	-0.062495295
31	0xbb6db597	-0.0036271566
32	0xbe0e746d	-0.139116
33	0xbdf6cbef	-0.12050616
34	0xbe2e5bb2	-0.17027166
35	0xbe058aa8	-0.13041174
36	0x3eac941d	0.3370675
37	0xbf267a2f	-0.6503019
38	0xbe12d518	-0.14339101
39	0xbda93c7b	-0.08263489
40	0x3e90bfdf	0.28271386
41	0xbec0e533	-0.37674865
42	0xbeaa31d9	-0.33241156
43	0x3dc47526	0.09592657
44	0x3e5067b3	0.20352058
45	0x3cf5b203	0.02999211
46	0xbe04e176	-0.12976632
47	0xbcd03b5d	-0.025418932
48	0xbdf88cd2	-0.12136234
49	0xbde42845	-0.11140493
50	0xbdccf43a	-0.1000752
51	0xbd315e10	-0.043302596
52	0x3d3957a4	0.045249596
53	0x3e63973a	0.22225657
54	0xbcb731b4	-0.022362567
55	0xbd497171	-0.04918045
56	0x3c6785eb	0.01413105
57	0xbd90297a	-0.07039161
58	0x3def1527	0.11673956
59	0x3d05b071	0.03263897
60	0x3ad8b6a2	0.0016533921
61	0xbcb7bd84	-0.022429235
62	0x3c13ea22	0.00902799
63	0xbd8e6195	-0.06952206
64	0xbdf3a86e	-0.1189736
65	0x3db71aaf	0.08940636
66	0x3de76a84	0.11299613
67	0xbce8e6db	-0.028430393
68	0xbd1c68d7	-0.03818592
69	0xbda07f67	-0.078368
70	0x3e190495	0.14943154
71	0xbeafeb54	-0.3435923
72	0xbdf3a2d2	-0.1189629
73	0x3e90960e	0.28239483
74	0x3da8bb70	0.08238876
75	0x3e1cf959	0.15329494
76	0xbcf76cf6	-0.030203324
77	0x3d200c7e	0.039074413
78	0x3d1170f5	0.035508115
79	0xbe0b2a6c	-0.13590401
80	0xbce6a198	-0.028153226
81	0x3eb00ac7	0.34383222
82	0x3f0cc2c4	0.5498469
83	0x3e91c9dd	0.28474322
84	0xbdd06e63	-0.101773046
85	0x3f8f51ea	1.1196873
86	0x3e169d0c	0.14708346
87	0x3ebc3e4e	0.36766285
88	0xbea52cc1	-0.32260707
89	0x3e51153d	0.20418258
90	0x3f686811	0.9078379
91	0x3ddf066b	0.10889896
92	0xbef0ca21	-0.47029212
93	0x3de233f1	0.11045063
94	0xbe2c754c	-0.1684162
95	0x3e062c4d	0.13102837
96	0xbdfab330	-0.122412086
97	0x3eae6958	0.34064746
98	0x3de52082	0.11187841
99	0x3c5213d6	0.012822112
100	0x3d854bcf	0.065086
101	0x3ba9b22f	0.005178712
102	0x3ecc20d5	0.398688
103	0x3dd64fbf	0.10464429
104	0xbe133b89	-0.1437818
105	0x3e6538b8	0.22384918
106	0x3e903300	0.2816391
107	0xbcc6ea9a	-0.024281789
108	0xbdcbc521	-0.09949709
109	0x3c74d42e	0.014943166
110	0xbdb6720a	-0.0890847
111	0xbc01dc9c	-0.0079261325
112	0x3e45fe00	0.19335175
113	0xbe041302	-0.12897876
114	0xbe899286	-0.268696
115	0xbc6a929b	-0.01431718
116	0x3e36d1d6	0.17853484
117	0x3e076194	0.13220817
118	0x3e29836e	0.16554043
119	0x3afb8bd6	0.0019191455
120	0x3dd8a18d	0.10577688
121	0xbf0e15a9	-0.555018
122	0x3bf58f45	0.0074938857
123	0xbdb3df29	-0.08782799
124	0x3d304c44	0.043041483
125	0xbd68e5de	-0.056859843
126	0xbdceb2f9	-0.1009273
127	0xbbe4a808	-0.0069780387
128	0x3ce27258	0.027642414
129	0x3d039a75	0.032129724
130	0x3afe368d	0.001939492
131	0x3d9390f9	0.07205386
132	0xbc3622e5	-0.011116718
133	0xbe86a128	-0.26294827
134	0xbe21da15	-0.15805848
135	0x3dc05096	0.093903705
136	0xbd841f92	-0.06451334
137	0xbdd7da56	-0.10539691
138	0xbe1533b4	-0.14570504
139	0x3d8178e5	0.06321887
140	0x3b8b78d1	0.004256346
141	0x3cbc9e97	0.02302484
142	0xbd8faa27	-0.07014876
143	0xbd069246	-0.03285434
144	0xbd5ab873	-0.05339856
145	0xbe023494	-0.1271537
146	0xbdcb0cb8	-0.09914535
147	0x3e1c3de3	0.15257983
148	0xbe58ce93	-0.21172552
149	0xbe4d3cf7	-0.20042787
150	0xbe58107e	-0.21100041
151	0x3dc462e1	0.09589172
152	0x3e084ff9	0.13311757
153	0x3d36b3b9	0.04460499
154	0xbe8ca13e	-0.27466768
155	0xbd9d9c4d	-0.07695828
156	0xbd5b2197	-0.05349883
157	0xbd9a2334	-0.07526246
158	0x3cecb95d	0.028896982
159	0xbd6ac847	-0.057319906
160	0x3e6a5be1	0.22886612
161	0x3bb68845	0.005570444
162	0x3cdf2d70	0.027243346
163	0xbcd2c2d0	-0.02572766
164	0x3e25239e	0.16126868
165	0xbdf5a8b6	-0.1199507
166	0xbdfd60df	-0.12371992
167	0x3de1c80c	0.11024484
168	0x3c34d16b	0.011036257
169	0x3c58ed49	0.013240167
170	0x3dd46937	0.10371631
171	0x3ce54e3d	0.027991408
172	0x3d5e7a6b	0.054315966
173	0x3df8ee53	0.12154832
174	0xbdaa7b72	-0.083243266
175	0xbde3698c	-0.11104116
176	0x3ea5385f	0.3226957
177	0x3d8be4e5	0.068307675
178	0x3e8e39a9	0.27778366
179	0x3e242e27	0.1603323
180	0x3d1fc04a	0.03900174
181	0x3d2d08d0	0.042244732
182	0x3d57eff1	0.05271906
183	0xbf349750	-0.70543385
184	0xbdaf24af	-0.08551919
185	0x3f036f1b	0.5134141
186	0x3e2164d0	0.15761113
187	0xbe9baecc	-0.30406797
188	0x3e26b72b	0.1628081
189	0xbd8aec8e	-0.067834005
190	0xbe7e6ad6	-0.24845442
191	0xbdbda408	-0.09259802
192	0x3e4f7ff8	0.2026366
193	0x3bbc5c36	0.005748297
194	0xbb1ff38b	-0.0024406638
195	0x3d98217a	0.0742826
196	0x3d0958af	0.03353184
197	0xbd91adc2	-0.0711322
198	0xbeed48f6	-0.46344727
199	0xbd48113e	-0.04884457
200	0x3e7e6965	0.24844892
201	0x3dfd9dab	0.123835884
202	0xbdd05436	-0.10172312
203	0x3b961dea	0.0045812028
204	0x3b5cc3e3	0.0033686094
205	0x3e51fd35	0.20506747
206	0x3d980783	0.07423308
207	0x3d096aeb	0.03354923
208	0x3ea329e4	0.31867898
209	0xbdd342d6	-0.10315482
210	0xbed43efc	-0.41454303
211	0x3dfe5a21	0.124195345
212	0xbe140e2c	-0.14458531
213	0x3d3e2837	0.04642507
214	0x3cde8a0c	0.027165435
215	0x3bad1f8c	0.0052833017
216	0x3dce5f4e	0.10076772
217	0x3e0b64a0	0.13612604
218	0x3d920bc7	0.071311526
219	0x3dd05aee	0.101735935
220	0xbdd13179	-0.10214514
221	0xbef7b093	-0.48376903
222	0x3d6be415	0.057590563
223	0x3e14672e	0.14492485
224	0x3c3729fd	0.011179444
225	0xbdc13686	-0.09434228
226	0x3e06c7bb	0.13162129
227	0xbc3610d4	-0.011112411
228	0x3df598eb	0.119920574
229	0x3f02d3f8	0.5110469
230	0x3f1a9f5b	0.6039941
231	0x3e47fbf6	0.19529709
232	0xbcc5eb39	-0.024160014
233	0x3dfe1665	0.12406615
234	0x3e8ec37c	0.27883518
235	0x3d97a028	0.07403594
236	0x3da21250	0.07913649
237	0x3d8cba4c	0.06871471
238	0x3ddc6acb	0.10762557
239	0x3bb584b8	0.005539503
240	0xbdf2f259	-0.118626304
241	0x3e20b096	0.15692362
242	0xbdf17d9f	-0.117915384
243	0x3d1d143b	0.03834937
244	0x3e398ee0	0.18120909
245	0x3dddca4e	0.10829602
246	0x3e094480	0.13405037
247	0xbc7afc28	-0.015318908
248	0xbdd3a9e1	-0.10335136
249	0xbf4d7003	-0.8024904
250	0xbccd4920	-0.025059283
251	0x3cba2f70	0.022727698
252	0x3c377ba2	0.01119891
253	0xbeea0cd5	-0.45712915
254	0x3bf011ae	0.0073263263
255	0xbeae6af7	-0.34065983

decoder.2.bias f4 [24]
0	0x3e9b2406	0.3030092
1	0xbe572f24	-0.21014076
2	0xbf766a15	-0.9625562
3	0x3f8d390d	1.1033036
4	0x4037c065	2.8711178
5	0xbfb7a2ee	-1.4346597
6	0xbe148ed5	-0.14507611
7	0x3fa33283	1.274979
8	0xbe9c5a8c	-0.30537832
9	0xbe8380a9	-0.25684097
10	0x3cc3cbd0	0.023900896
11	0xbe74240c	-0.23841876
12	0x3f66a0c6	0.9008907
13	0xbf50f821	-0.81628615
14	0xbe595230	-0.21222758
15	0xbf00412b	-0.5009944
16	0xbf464516	-0.77449167
17	0xbd5618b9	-0.05226967
18	0x3eb40321	0.35158637
19	0x3f8e194d	1.1101471
20	0x3c00c891	0.007860319
21	0x3f612dc4	0.8796046
22	0x3e3e1298	0.1856178
23	0x3ced1616	0.028941195
